…
   0           []                               \n","                                                                                                  \n"," input_X6 (InputLayer)          [(None, 1)]          0           []                               \n","                                                                                                  \n"," input_X8 (InputLayer)          [(None, 1)]          0           []                               \n","                                                                                                  \n"," embedding (Embedding)          (None, 1, 5)         235         ['input_X0[0][0]']               \n","                                                                                                  \n"," embedding_1 (Embedding)        (None, 1, 5)         135         ['input_X1[0][0]']               \n","                                                                                                  \n"," embedding_2 (Embedding)        (None, 1, 5)         220         ['input_X2[0][0]']               \n","                                                                                                  \n"," embedding_3 (Embedding)        (None, 1, 5)         35          ['input_X3[0][0]']               \n","                                                                                                  \n"," embedding_4 (Embedding)        (None, 1, 5)         20          ['input_X4[0][0]']               \n","                                                                                                  \n"," embedding_5 (Embedding)        (None, 1, 5)         145         ['input_X5[0][0]']               \n","                                                                                                  \n"," embedding_6 (Embedding)        (None, 1, 5)         60          ['input_X6[0][0]']               \n","                                                                                                  \n"," embedding_7 (Embedding)        (None, 1, 5)         125         ['input_X8[0][0]']               \n","                                                                                                  \n"," reshape (Reshape)              (None, 5)            0           ['embedding[0][0]']              \n","                                                                                                  \n"," reshape_1 (Reshape)            (None, 5)            0           ['embedding_1[0][0]']            \n","                                                                                                  \n"," reshape_2 (Reshape)            (None, 5)            0           ['embedding_2[0][0]']            \n","                                                                                                  \n"," reshape_3 (Reshape)            (None, 5)            0           ['embedding_3[0][0]']            \n","                                                                                                  \n"," reshape_4 (Reshape)            (None, 5)            0           ['embedding_4[0][0]']            \n","                                                                                                  \n"," reshape_5 (Reshape)            (None, 5)            0           ['embedding_5[0][0]']            \n","                                                                                                  \n"," reshape_6 (Reshape)            (None, 5)            0           ['embedding_6[0][0]']            \n","                                                                                                  \n"," reshape_7 (Reshape)            (None, 5)            0           ['embedding_7[0][0]']            \n","                                                                                                  \n"," concatenate (Concatenate)      (None, 40)           0           ['reshape[0][0]',                \n","                                                                  'reshape_1[0][0]',              \n","                                                                  'reshape_2[0][0]',              \n","                                                                  'reshape_3[0][0]',              \n","                                                                  'reshape_4[0][0]',              \n","                                                                  'reshape_5[0][0]',              \n","                                                                  'reshape_6[0][0]',              \n","                                                                  'reshape_7[0][0]']              \n","                                                                                                  \n"," dense_6 (Dense)                (None, 105)          4305        ['concatenate[0][0]']            \n","                                                                                                  \n"," batch_normalization_4 (BatchNo  (None, 105)         420         ['dense_6[0][0]']                \n"," rmalization)                                                                                     \n","                                                                                                  \n"," dropout_4 (Dropout)            (None, 105)          0           ['batch_normalization_4[0][0]']  \n","                                                                                                  \n"," gaussian_noise_4 (GaussianNois  (None, 105)         0           ['dropout_4[0][0]']              \n"," e)                                                                                               \n","                                                                                                  \n"," activation_4 (Activation)      (None, 105)          0           ['gaussian_noise_4[0][0]']       \n","                                                                                                  \n"," dense_7 (Dense)                (None, 105)          11130       ['activation_4[0][0]']           \n","                                                                                                  \n"," batch_normalization_5 (BatchNo  (None, 105)         420         ['dense_7[0][0]']                \n"," rmalization)                                                                                     \n","                                                                                                  \n"," dropout_5 (Dropout)            (None, 105)          0           ['batch_normalization_5[0][0]']  \n","                                                                                                  \n"," gaussian_noise_5 (GaussianNois  (None, 105)         0           ['dropout_5[0][0]']              \n"," e)                                                                                               \n","                                                                                                  \n"," activation_5 (Activation)      (None, 105)          0           ['gaussian_noise_5[0][0]']       \n","                                                                                                  \n"," dense_8 (Dense)                (None, 1)            106         ['activation_5[0][0]']           \n","                                                                                                  \n","==================================================================================================\n","Total params: 17,356\n","Trainable params: 16,936\n","Non-trainable params: 420\n","_______________________________________________________________
…
